…
   "outputs": [
    {
     "data": {
      "text/plain": [
       "============================================================================================================================================\n",
       "Layer (type (var_name))                                      Input Shape          Output Shape         Param #              Trainable\n",
       "============================================================================================================================================\n",
       "EfficientNet (EfficientNet)                                  [1, 3, 244, 244]     [1, 1000]            --                   Partial\n",
       "├─Sequential (features)                                      [1, 3, 244, 244]     [1, 1280, 8, 8]      --                   False\n",
       "│    └─Conv2dNormActivation (0)                              [1, 3, 244, 244]     [1, 32, 122, 122]    --                   False\n",
       "│    │    └─Conv2d (0)                                       [1, 3, 244, 244]     [1, 32, 122, 122]    (864)                False\n",
       "│    │    └─BatchNorm2d (1)                                  [1, 32, 122, 122]    [1, 32, 122, 122]    (64)                 False\n",
       "│    │    └─SiLU (2)                                         [1, 32, 122, 122]    [1, 32, 122, 122]    --                   --\n",
       "│    └─Sequential (1)                                        [1, 32, 122, 122]    [1, 16, 122, 122]    --                   False\n",
       "│    │    └─MBConv (0)                                       [1, 32, 122, 122]    [1, 16, 122, 122]    (1,448)              False\n",
       "│    └─Sequential (2)                                        [1, 16, 122, 122]    [1, 24, 61, 61]      --                   False\n",
       "│    │    └─MBConv (0)                                       [1, 16, 122, 122]    [1, 24, 61, 61]      (6,004)              False\n",
       "│    │    └─MBConv (1)                                       [1, 24, 61, 61]      [1, 24, 61, 61]      (10,710)             False\n",
       "│    └─Sequential (3)                                        [1, 24, 61, 61]      [1, 40, 31, 31]      --                   False\n",
       "│    │    └─MBConv (0)                                       [1, 24, 61, 61]      [1, 40, 31, 31]      (15,350)             False\n",
       "│    │    └─MBConv (1)                                       [1, 40, 31, 31]      [1, 40, 31, 31]      (31,290)             False\n",
       "│    └─Sequential (4)                                        [1, 40, 31, 31]      [1, 80, 16, 16]      --                   False\n",
       "│    │    └─MBConv (0)                                       [1, 40, 31, 31]      [1, 80, 16, 16]      (37,130)             False\n",
       "│    │    └─MBConv (1)                                       [1, 80, 16, 16]      [1, 80, 16, 16]      (102,900)            False\n",
       "│    │    └─MBConv (2)                                       [1, 80, 16, 16]      [1, 80, 16, 16]      (102,900)            False\n",
       "│    └─Sequential (5)                                        [1, 80, 16, 16]      [1, 112, 16, 16]     --                   False\n",
       "│    │    └─MBConv (0)                                       [1, 80, 16, 16]      [1, 112, 16, 16]     (126,004)            False\n",
       "│    │    └─MBConv (1)                                       [1, 112, 16, 16]     [1, 112, 16, 16]     (208,572)            False\n",
       "│    │    └─MBConv (2)                                       [1, 112, 16, 16]     [1, 112, 16, 16]     (208,572)            False\n",
       "│    └─Sequential (6)                                        [1, 112, 16, 16]     [1, 192, 8, 8]       --                   False\n",
       "│    │    └─MBConv (0)                                       [1, 112, 16, 16]     [1, 192, 8, 8]       (262,492)            False\n",
       "│    │    └─MBConv (1)                                       [1, 192, 8, 8]       [1, 192, 8, 8]       (587,952)            False\n",
       "│    │    └─MBConv (2)                                       [1, 192, 8, 8]       [1, 192, 8, 8]       (587,952)            False\n",
       "│    │    └─MBConv (3)                                       [1, 192, 8, 8]       [1, 192, 8, 8]       (587,952)            False\n",
       "│    └─Sequential (7)                                        [1, 192, 8, 8]       [1, 320, 8, 8]       --                   False\n",
       "│    │    └─MBConv (0)                                       [1, 192, 8, 8]       [1, 320, 8, 8]       (717,232)            False\n",
       "│    └─Conv2dNormActivation (8)                              [1, 320, 8, 8]       [1, 1280, 8, 8]      --                   False\n",
       "│    │    └─Conv2d (0)                                       [1, 320, 8, 8]       [1, 1280, 8, 8]      (409,600)            False\n",
       "│    │    └─BatchNorm2d (1)                                  [1, 1280, 8, 8]      [1, 1280, 8, 8]      (2,560)              False\n",
       "│    │    └─SiLU (2)                                         [1, 1280, 8, 8]      [1, 1280, 8, 8]      --                   --\n",
       "├─AdaptiveAvgPool2d (avgpool)                                [1, 1280, 8, 8]      [1, 1280, 1, 1]      --                   --\n",
       "├─Sequential (classifier)                                    [1, 1280]            [1, 1000]            --                   True\n",
       "│    └─Dropout (0)                                           [1, 1280]            [1, 1280]            --                   --\n",
       "│    └─Linear (1)                                            [1, 1280]            [1, 1000]            1,281,000            True\n",
       "============================================================================================================================================\n",
       "Total params: 5,288,548\n",
       "Trainable params: 1,281,000\n",
       "Non-trainable params: 4,007,548\n",
       "Total mult-adds (Units.MEGABYTES): 490.25\n",
       "============================================================================================================================================\n",
…
   "outputs": [
    {
     "data": {
      "text/plain": [
       "============================================================================================================================================\n",
       "Layer (type (var_name))                                      Input Shape          Output Shape         Param #              Trainable\n",
       "============================================================================================================================================\n",
       "EfficientNet (EfficientNet)                                  [32, 3, 224, 224]    [32, 3]              --                   Partial\n",
       "├─Sequential (features)                                      [32, 3, 224, 224]    [32, 1280, 7, 7]     --                   False\n",
       "│    └─Conv2dNormActivation (0)                              [32, 3, 224, 224]    [32, 32, 112, 112]   --                   False\n",
       "│    │    └─Conv2d (0)                                       [32, 3, 224, 224]    [32, 32, 112, 112]   (864)                False\n",
       "│    │    └─BatchNorm2d (1)                                  [32, 32, 112, 112]   [32, 32, 112, 112]   (64)                 False\n",
       "│    │    └─SiLU (2)                                         [32, 32, 112, 112]   [32, 32, 112, 112]   --                   --\n",
       "│    └─Sequential (1)                                        [32, 32, 112, 112]   [32, 16, 112, 112]   --                   False\n",
       "│    │    └─MBConv (0)                                       [32, 32, 112, 112]   [32, 16, 112, 112]   (1,448)              False\n",
       "│    └─Sequential (2)                                        [32, 16, 112, 112]   [32, 24, 56, 56]     --                   False\n",
       "│    │    └─MBConv (0)                                       [32, 16, 112, 112]   [32, 24, 56, 56]     (6,004)              False\n",
       "│    │    └─MBConv (1)                                       [32, 24, 56, 56]     [32, 24, 56, 56]     (10,710)             False\n",
       "│    └─Sequential (3)                                        [32, 24, 56, 56]     [32, 40, 28, 28]     --                   False\n",
       "│    │    └─MBConv (0)                                       [32, 24, 56, 56]     [32, 40, 28, 28]     (15,350)             False\n",
       "│    │    └─MBConv (1)                                       [32, 40, 28, 28]     [32, 40, 28, 28]     (31,290)             False\n",
       "│    └─Sequential (4)                                        [32, 40, 28, 28]     [32, 80, 14, 14]     --                   False\n",
       "│    │    └─MBConv (0)                                       [32, 40, 28, 28]     [32, 80, 14, 14]     (37,130)             False\n",
       "│    │    └─MBConv (1)                                       [32, 80, 14, 14]     [32, 80, 14, 14]     (102,900)            False\n",
       "│    │    └─MBConv (2)                                       [32, 80, 14, 14]     [32, 80, 14, 14]     (102,900)            False\n",
       "│    └─Sequential (5)                                        [32, 80, 14, 14]     [32, 112, 14, 14]    --                   False\n",
       "│    │    └─MBConv (0)                                       [32, 80, 14, 14]     [32, 112, 14, 14]    (126,004)            False\n",
       "│    │    └─MBConv (1)                                       [32, 112, 14, 14]    [32, 112, 14, 14]    (208,572)            False\n",
       "│    │    └─MBConv (2)                                       [32, 112, 14, 14]    [32, 112, 14, 14]    (208,572)            False\n",
       "│    └─Sequential (6)                                        [32, 112, 14, 14]    [32, 192, 7, 7]      --                   False\n",
       "│    │    └─MBConv (0)                                       [32, 112, 14, 14]    [32, 192, 7, 7]      (262,492)            False\n",
       "│    │    └─MBConv (1)                                       [32, 192, 7, 7]      [32, 192, 7, 7]      (587,952)            False\n",
       "│    │    └─MBConv (2)                                       [32, 192, 7, 7]      [32, 192, 7, 7]      (587,952)            False\n",
       "│    │    └─MBConv (3)                                       [32, 192, 7, 7]      [32, 192, 7, 7]      (587,952)            False\n",
       "│    └─Sequential (7)                                        [32, 192, 7, 7]      [32, 320, 7, 7]      --                   False\n",
       "│    │    └─MBConv (0)                                       [32, 192, 7, 7]      [32, 320, 7, 7]      (717,232)            False\n",
       "│    └─Conv2dNormActivation (8)                              [32, 320, 7, 7]      [32, 1280, 7, 7]     --                   False\n",
       "│    │    └─Conv2d (0)                                       [32, 320, 7, 7]      [32, 1280, 7, 7]     (409,600)            False\n",
       "│    │    └─BatchNorm2d (1)                                  [32, 1280, 7, 7]     [32, 1280, 7, 7]     (2,560)              False\n",
       "│    │    └─SiLU (2)                                         [32, 1280, 7, 7]     [32, 1280, 7, 7]     --                   --\n",
       "├─AdaptiveAvgPool2d (avgpool)                                [32, 1280, 7, 7]     [32, 1280, 1, 1]     --                   --\n",
       "├─Sequential (classifier)                                    [32, 1280]           [32, 3]              --                   True\n",
       "│    └─Dropout (0)                                           [32, 1280]           [32, 1280]           --                   --\n",
       "│    └─Linear (1)                                            [32, 1280]           [32, 3]              3,843                True\n",
       "============================================================================================================================================\n",
       "Total params: 4,011,391\n",
       "Trainable params: 3,843\n",
       "Non-trainable params: 4,007,548\n",
       "Total mult-adds (Units.GIGABYTES): 12.31\n",
       "============================================================================================================================================\n",
…
   "outputs": [
    {
     "data": {
      "text/plain": [
       "============================================================================================================================================\n",
       "Layer (type (var_name))                                      Input Shape          Output Shape         Param #              Trainable\n",
       "============================================================================================================================================\n",
       "EfficientNet (EfficientNet)                                  [32, 3, 224, 224]    [32, 1000]           --                   True\n",
       "├─Sequential (features)                                      [32, 3, 224, 224]    [32, 1408, 7, 7]     --                   True\n",
       "│    └─Conv2dNormActivation (0)                              [32, 3, 224, 224]    [32, 32, 112, 112]   --                   True\n",
       "│    │    └─Conv2d (0)                                       [32, 3, 224, 224]    [32, 32, 112, 112]   864                  True\n",
       "│    │    └─BatchNorm2d (1)                                  [32, 32, 112, 112]   [32, 32, 112, 112]   64                   True\n",
       "│    │    └─SiLU (2)                                         [32, 32, 112, 112]   [32, 32, 112, 112]   --                   --\n",
       "│    └─Sequential (1)                                        [32, 32, 112, 112]   [32, 16, 112, 112]   --                   True\n",
       "│    │    └─MBConv (0)                                       [32, 32, 112, 112]   [32, 16, 112, 112]   1,448                True\n",
       "│    │    └─MBConv (1)                                       [32, 16, 112, 112]   [32, 16, 112, 112]   612                  True\n",
       "│    └─Sequential (2)                                        [32, 16, 112, 112]   [32, 24, 56, 56]     --                   True\n",
       "│    │    └─MBConv (0)                                       [32, 16, 112, 112]   [32, 24, 56, 56]     6,004                True\n",
       "│    │    └─MBConv (1)                                       [32, 24, 56, 56]     [32, 24, 56, 56]     10,710               True\n",
       "│    │    └─MBConv (2)                                       [32, 24, 56, 56]     [32, 24, 56, 56]     10,710               True\n",
       "│    └─Sequential (3)                                        [32, 24, 56, 56]     [32, 48, 28, 28]     --                   True\n",
       "│    │    └─MBConv (0)                                       [32, 24, 56, 56]     [32, 48, 28, 28]     16,518               True\n",
       "│    │    └─MBConv (1)                                       [32, 48, 28, 28]     [32, 48, 28, 28]     43,308               True\n",
       "│    │    └─MBConv (2)                                       [32, 48, 28, 28]     [32, 48, 28, 28]     43,308               True\n",
       "│    └─Sequential (4)                                        [32, 48, 28, 28]     [32, 88, 14, 14]     --                   True\n",
       "│    │    └─MBConv (0)                                       [32, 48, 28, 28]     [32, 88, 14, 14]     50,300               True\n",
       "│    │    └─MBConv (1)                                       [32, 88, 14, 14]     [32, 88, 14, 14]     123,750              True\n",
       "│    │    └─MBConv (2)                                       [32, 88, 14, 14]     [32, 88, 14, 14]     123,750              True\n",
       "│    │    └─MBConv (3)                                       [32, 88, 14, 14]     [32, 88, 14, 14]     123,750              True\n",
       "│    └─Sequential (5)                                        [32, 88, 14, 14]     [32, 120, 14, 14]    --                   True\n",
       "│    │    └─MBConv (0)                                       [32, 88, 14, 14]     [32, 120, 14, 14]    149,158              True\n",
       "│    │    └─MBConv (1)                                       [32, 120, 14, 14]    [32, 120, 14, 14]    237,870              True\n",
       "│    │    └─MBConv (2)                                       [32, 120, 14, 14]    [32, 120, 14, 14]    237,870              True\n",
       "│    │    └─MBConv (3)                                       [32, 120, 14, 14]    [32, 120, 14, 14]    237,870              True\n",
       "│    └─Sequential (6)                                        [32, 120, 14, 14]    [32, 208, 7, 7]      --                   True\n",
       "│    │    └─MBConv (0)                                       [32, 120, 14, 14]    [32, 208, 7, 7]      301,406              True\n",
       "│    │    └─MBConv (1)                                       [32, 208, 7, 7]      [32, 208, 7, 7]      686,868              True\n",
       "│    │    └─MBConv (2)                                       [32, 208, 7, 7]      [32, 208, 7, 7]      686,868              True\n",
       "│    │    └─MBConv (3)                                       [32, 208, 7, 7]      [32, 208, 7, 7]      686,868              True\n",
       "│    │    └─MBConv (4)                                       [32, 208, 7, 7]      [32, 208, 7, 7]      686,868              True\n",
       "│    └─Sequential (7)                                        [32, 208, 7, 7]      [32, 352, 7, 7]      --                   True\n",
       "│    │    └─MBConv (0)                                       [32, 208, 7, 7]      [32, 352, 7, 7]      846,900              True\n",
       "│    │    └─MBConv (1)                                       [32, 352, 7, 7]      [32, 352, 7, 7]      1,888,920            True\n",
       "│    └─Conv2dNormActivation (8)                              [32, 352, 7, 7]      [32, 1408, 7, 7]     --                   True\n",
       "│    │    └─Conv2d (0)                                       [32, 352, 7, 7]      [32, 1408, 7, 7]     495,616              True\n",
       "│    │    └─BatchNorm2d (1)                                  [32, 1408, 7, 7]     [32, 1408, 7, 7]     2,816                True\n",
       "│    │    └─SiLU (2)                                         [32, 1408, 7, 7]     [32, 1408, 7, 7]     --                   --\n",
       "├─AdaptiveAvgPool2d (avgpool)                                [32, 1408, 7, 7]     [32, 1408, 1, 1]     --                   --\n",
       "├─Sequential (classifier)                                    [32, 1408]           [32, 1000]           --                   True\n",
       "│    └─Dropout (0)                                           [32, 1408]           [32, 1408]           --                   --\n",
       "│    └─Linear (1)                                            [32, 1408]           [32, 1000]           1,409,000            True\n",
       "============================================================================================================================================\n",
       "Total params: 9,109,994\n",
       "Trainable params: 9,109,994\n",
       "Non-trainable params: 0\n",
       "Total mult-adds (Units.GIGABYTES): 21.09\n",
       "============================================================================================================================================\n",
…
   "outputs": [
    {
     "data": {
      "text/plain": [
       "============================================================================================================================================\n",
       "Layer (type (var_name))                                      Input Shape          Output Shape         Param #              Trainable\n",
       "============================================================================================================================================\n",
       "EfficientNet (EfficientNet)                                  [32, 3, 224, 224]    [32, 3]              --                   Partial\n",
       "├─Sequential (features)                                      [32, 3, 224, 224]    [32, 1408, 7, 7]     --                   False\n",
       "│    └─Conv2dNormActivation (0)                              [32, 3, 224, 224]    [32, 32, 112, 112]   --                   False\n",
       "│    │    └─Conv2d (0)                                       [32, 3, 224, 224]    [32, 32, 112, 112]   (864)                False\n",
       "│    │    └─BatchNorm2d (1)                                  [32, 32, 112, 112]   [32, 32, 112, 112]   (64)                 False\n",
       "│    │    └─SiLU (2)                                         [32, 32, 112, 112]   [32, 32, 112, 112]   --                   --\n",
       "│    └─Sequential (1)                                        [32, 32, 112, 112]   [32, 16, 112, 112]   --                   False\n",
       "│    │    └─MBConv (0)                                       [32, 32, 112, 112]   [32, 16, 112, 112]   (1,448)              False\n",
       "│    │    └─MBConv (1)                                       [32, 16, 112, 112]   [32, 16, 112, 112]   (612)                False\n",
       "│    └─Sequential (2)                                        [32, 16, 112, 112]   [32, 24, 56, 56]     --                   False\n",
       "│    │    └─MBConv (0)                                       [32, 16, 112, 112]   [32, 24, 56, 56]     (6,004)              False\n",
       "│    │    └─MBConv (1)                                       [32, 24, 56, 56]     [32, 24, 56, 56]     (10,710)             False\n",
       "│    │    └─MBConv (2)                                       [32, 24, 56, 56]     [32, 24, 56, 56]     (10,710)             False\n",
       "│    └─Sequential (3)                                        [32, 24, 56, 56]     [32, 48, 28, 28]     --                   False\n",
       "│    │    └─MBConv (0)                                       [32, 24, 56, 56]     [32, 48, 28, 28]     (16,518)             False\n",
       "│    │    └─MBConv (1)                                       [32, 48, 28, 28]     [32, 48, 28, 28]     (43,308)             False\n",
       "│    │    └─MBConv (2)                                       [32, 48, 28, 28]     [32, 48, 28, 28]     (43,308)             False\n",
       "│    └─Sequential (4)                                        [32, 48, 28, 28]     [32, 88, 14, 14]     --                   False\n",
       "│    │    └─MBConv (0)                                       [32, 48, 28, 28]     [32, 88, 14, 14]     (50,300)             False\n",
       "│    │    └─MBConv (1)                                       [32, 88, 14, 14]     [32, 88, 14, 14]     (123,750)            False\n",
       "│    │    └─MBConv (2)                                       [32, 88, 14, 14]     [32, 88, 14, 14]     (123,750)            False\n",
       "│    │    └─MBConv (3)                                       [32, 88, 14, 14]     [32, 88, 14, 14]     (123,750)            False\n",
       "│    └─Sequential (5)                                        [32, 88, 14, 14]     [32, 120, 14, 14]    --                   False\n",
       "│    │    └─MBConv (0)                                       [32, 88, 14, 14]     [32, 120, 14, 14]    (149,158)            False\n",
       "│    │    └─MBConv (1)                                       [32, 120, 14, 14]    [32, 120, 14, 14]    (237,870)            False\n",
       "│    │    └─MBConv (2)                                       [32, 120, 14, 14]    [32, 120, 14, 14]    (237,870)            False\n",
       "│    │    └─MBConv (3)                                       [32, 120, 14, 14]    [32, 120, 14, 14]    (237,870)            False\n",
       "│    └─Sequential (6)                                        [32, 120, 14, 14]    [32, 208, 7, 7]      --                   False\n",
       "│    │    └─MBConv (0)                                       [32, 120, 14, 14]    [32, 208, 7, 7]      (301,406)            False\n",
       "│    │    └─MBConv (1)                                       [32, 208, 7, 7]      [32, 208, 7, 7]      (686,868)            False\n",
       "│    │    └─MBConv (2)                                       [32, 208, 7, 7]      [32, 208, 7, 7]      (686,868)            False\n",
       "│    │    └─MBConv (3)                                       [32, 208, 7, 7]      [32, 208, 7, 7]      (686,868)            False\n",
       "│    │    └─MBConv (4)                                       [32, 208, 7, 7]      [32, 208, 7, 7]      (686,868)            False\n",
       "│    └─Sequential (7)                                        [32, 208, 7, 7]      [32, 352, 7, 7]      --                   False\n",
       "│    │    └─MBConv (0)                                       [32, 208, 7, 7]      [32, 352, 7, 7]      (846,900)            False\n",
       "│    │    └─MBConv (1)                                       [32, 352, 7, 7]      [32, 352, 7, 7]      (1,888,920)          False\n",
       "│    └─Conv2dNormActivation (8)                              [32, 352, 7, 7]      [32, 1408, 7, 7]     --                   False\n",
       "│    │    └─Conv2d (0)                                       [32, 352, 7, 7]      [32, 1408, 7, 7]     (495,616)            False\n",
       "│    │    └─BatchNorm2d (1)                                  [32, 1408, 7, 7]     [32, 1408, 7, 7]     (2,816)              False\n",
       "│    │    └─SiLU (2)                                         [32, 1408, 7, 7]     [32, 1408, 7, 7]     --                   --\n",
       "├─AdaptiveAvgPool2d (avgpool)                                [32, 1408, 7, 7]     [32, 1408, 1, 1]     --                   --\n",
       "├─Sequential (classifier)                                    [32, 1408]           [32, 3]              --                   True\n",
       "│    └─Dropout (0)                                           [32, 1408]           [32, 1408]           --                   --\n",
       "│    └─Linear (1)                                            [32, 1408]           [32, 3]              4,227                True\n",
       "============================================================================================================================================\n",
       "Total params: 7,705,221\n",
       "Trainable params: 4,227\n",
       "Non-trainable params: 7,700,994\n",
       "Total mult-adds (Units.GIGABYTES): 21.04\n",
       "============================================================================================================================================\n",
…
